…
wandb: Currently logged in as: andresguzco. Use `wandb login --relogin` to force relogin
wandb: wandb version 0.17.4 is available!  To upgrade, please run:
wandb:  $ pip install wandb --upgrade
wandb: Tracking run with wandb version 0.17.0
wandb: Run data is saved locally in /fs01/home/aguzmanc/3D_Bayes/wandb/run-20240704_185017-rrqvt8ey
wandb: Run `wandb offline` to turn off syncing.
wandb: Syncing run Laplace
wandb: ⭐️ View project at https://wandb.ai/andresguzco/3D_Bayes
wandb: 🚀 View run at https://wandb.ai/andresguzco/3D_Bayes/runs/rrqvt8ey
Training set mean: 6.820860385894775, std:1.4590328931808472
EquiformerV2(
  (sphere_embedding): Embedding(90, 128)
  (distance_expansion): GaussianSmearing()
  (SO3_rotation): ModuleList(
    (0): SO3_Rotation(
      (mapping): CoefficientMappingModule(lmax_list=[2], mmax_list=[2])
    )
  )
  (mappingReduced): CoefficientMappingModule(lmax_list=[2], mmax_list=[2])
  (SO3_grid): (2, 2)
  (edge_degree_embedding): EdgeDegreeEmbedding(
    (SO3_rotation): ModuleList(
      (0): SO3_Rotation(
        (mapping): CoefficientMappingModule(lmax_list=[2], mmax_list=[2])
      )
    )
    (mappingReduced): CoefficientMappingModule(lmax_list=[2], mmax_list=[2])
    (source_embedding): Embedding(90, 64)
    (target_embedding): Embedding(90, 64)
    (rad_func): RadialFunction(
      (net): Sequential(
        (0): Linear(in_features=728, out_features=64, bias=True)
        (1): LayerNorm((64,), eps=1e-05, elementwise_affine=True)
        (2): SiLU()
        (3): Linear(in_features=64, out_features=64, bias=True)
        (4): LayerNorm((64,), eps=1e-05, elementwise_affine=True)
        (5): SiLU()
        (6): Linear(in_features=64, out_features=384, bias=True)
      )
    )
  )
  (blocks): ModuleList(
    (0-1): 2 x TransBlockV2(
      (norm_1): EquivariantRMSNormArraySphericalHarmonicsV2(lmax=2, num_channels=128, eps=1e-05, centering=True, std_balance_degrees=True)
      (ga): SO2EquivariantGraphAttention(
        (SO3_rotation): ModuleList(
          (0): SO3_Rotation(
            (mapping): CoefficientMappingModule(lmax_list=[2], mmax_list=[2])
          )
        )
        (mappingReduced): CoefficientMappingModule(lmax_list=[2], mmax_list=[2])
        (SO3_grid): (2, 2)
        (source_embedding): Embedding(90, 64)
        (target_embedding): Embedding(90, 64)
        (so2_conv_1): SO2_Convolution(
          (mappingReduced): CoefficientMappingModule(lmax_list=[2], mmax_list=[2])
          (fc_m0): Linear(in_features=768, out_features=640, bias=True)
          (so2_m_conv): ModuleList(
            (0): SO2_m_Convolution(
              (fc): Linear(in_features=512, out_features=512, bias=False)
            )
            (1): SO2_m_Convolution(
              (fc): Linear(in_features=256, out_features=256, bias=False)
            )
          )
          (rad_func): RadialFunction(
            (net): Sequential(
              (0): Linear(in_features=728, out_features=64, bias=True)
              (1): LayerNorm((64,), eps=1e-05, elementwise_affine=True)
              (2): SiLU()
              (3): Linear(in_features=64, out_features=64, bias=True)
              (4): LayerNorm((64,), eps=1e-05, elementwise_affine=True)
              (5): SiLU()
              (6): Linear(in_features=64, out_features=1536, bias=True)
            )
          )
        )
        (alpha_norm): LayerNorm((32,), eps=1e-05, elementwise_affine=True)
        (alpha_act): SmoothLeakyReLU(negative_slope=0.2)
        (alpha_dropout): Dropout(p=0.1, inplace=False)
        (s2_act): SeparableS2Activation(
          (scalar_act): SiLU()
          (s2_act): S2Activation(
            (act): SiLU()
          )
        )
        (so2_conv_2): SO2_Convolution(
          (mappingReduced): CoefficientMappingModule(lmax_list=[2], mmax_list=[2])
          (fc_m0): Linear(in_features=384, out_features=192, bias=True)
          (so2_m_conv): ModuleList(
            (0): SO2_m_Convolution(
              (fc): Linear(in_features=256, out_features=256, bias=False)
            )
            (1): SO2_m_Convolution(
              (fc): Linear(in_features=128, out_features=128, bias=False)
            )
          )
        )
        (proj): SO3_LinearV2(in_features=64, out_features=128, lmax=2)
      )
      (drop_path): GraphDropPath(drop_prob=0.05)
      (norm_2): EquivariantRMSNormArraySphericalHarmonicsV2(lmax=2, num_channels=128, eps=1e-05, centering=True, std_balance_degrees=True)
      (ffn): FeedForwardNetwork(
        (SO3_grid): (2, 2)
        (so3_linear_1): SO3_LinearV2(in_features=128, out_features=690, lmax=2)
        (gating_linear): Linear(in_features=128, out_features=690, bias=True)
        (s2_act): SeparableS2Activation(
          (scalar_act): SiLU()
          (s2_act): S2Activation(
            (act): SiLU()
          )
        )
        (so3_linear_2): SO3_LinearV2(in_features=690, out_features=128, lmax=2)
      )
    )
  )
  (norm): EquivariantRMSNormArraySphericalHarmonicsV2(lmax=2, num_channels=128, eps=1e-05, centering=True, std_balance_degrees=True)
  (energy_block): FeedForwardNetwork(
    (SO3_grid): (2, 2)
    (so3_linear_1): SO3_LinearV2(in_features=128, out_features=690, lmax=2)
    (gating_linear): Linear(in_features=128, out_features=690, bias=True)
    (s2_act): SeparableS2Activation(
      (scalar_act): SiLU()
      (s2_act): S2Activation(
        (act): SiLU()
      )
    )
    (so3_linear_2): SO3_LinearV2(in_features=690, out_features=1, lmax=2)
  )
)
Number of params: 4023875
Initiating training.

Starting validation step for early stopping.

Epoch: [0][0/8] 	 loss: 0.67715, MAE: 0.98798, time/step=785ms, lr=1.00e-06
…
