…
ay=0.01, workers=4, world_size=1)
wandb: Currently logged in as: andresguzco. Use `wandb login --relogin` to force relogin
wandb: Tracking run with wandb version 0.17.0
wandb: Run data is saved locally in /fs01/home/aguzmanc/3D_Bayes/wandb/run-20240530_111928-czaz8k98
wandb: Run `wandb offline` to turn off syncing.
wandb: Syncing run gallant-bush-128
wandb: ⭐️ View project at https://wandb.ai/andresguzco/equiformer_v2
wandb: 🚀 View run at https://wandb.ai/andresguzco/equiformer_v2/runs/czaz8k98
Training set mean: -40.12357711791992, std:11.211589813232422
EquiformerV2_OC20(
  (sphere_embedding): Embedding(90, 128)
  (distance_expansion): GaussianSmearing()
  (SO3_rotation): ModuleList(
    (0): SO3_Rotation(
      (mapping): CoefficientMappingModule(lmax_list=[4], mmax_list=[4])
    )
  )
  (mappingReduced): CoefficientMappingModule(lmax_list=[4], mmax_list=[2])
  (SO3_grid): (4, 4)
  (edge_degree_embedding): EdgeDegreeEmbedding(
    (SO3_rotation): ModuleList(
      (0): SO3_Rotation(
        (mapping): CoefficientMappingModule(lmax_list=[4], mmax_list=[4])
      )
    )
    (mappingReduced): CoefficientMappingModule(lmax_list=[4], mmax_list=[2])
    (source_embedding): Embedding(90, 64)
    (target_embedding): Embedding(90, 64)
    (rad_func): RadialFunction(
      (net): Sequential(
        (0): Linear(in_features=728, out_features=64, bias=True)
        (1): LayerNorm((64,), eps=1e-05, elementwise_affine=True)
        (2): SiLU()
        (3): Linear(in_features=64, out_features=64, bias=True)
        (4): LayerNorm((64,), eps=1e-05, elementwise_affine=True)
        (5): SiLU()
        (6): Linear(in_features=64, out_features=640, bias=True)
      )
    )
  )
  (blocks): ModuleList(
    (0): TransBlockV2(
      (norm_1): EquivariantRMSNormArraySphericalHarmonicsV2(lmax=4, num_channels=128, eps=1e-05, centering=True, std_balance_degrees=True)
      (ga): SO2EquivariantGraphAttention(
        (SO3_rotation): ModuleList(
          (0): SO3_Rotation(
            (mapping): CoefficientMappingModule(lmax_list=[4], mmax_list=[4])
          )
        )
        (mappingReduced): CoefficientMappingModule(lmax_list=[4], mmax_list=[2])
        (SO3_grid): (4, 4)
        (source_embedding): Embedding(90, 64)
        (target_embedding): Embedding(90, 64)
        (so2_conv_1): SO2_Convolution(
          (mappingReduced): CoefficientMappingModule(lmax_list=[4], mmax_list=[2])
          (fc_m0): Linear(in_features=1280, out_features=1024, bias=True)
          (so2_m_conv): ModuleList(
            (0): SO2_m_Convolution(
              (fc): Linear(in_features=1024, out_features=1024, bias=False)
            )
            (1): SO2_m_Convolution(
              (fc): Linear(in_features=768, out_features=768, bias=False)
            )
          )
          (rad_func): RadialFunction(
            (net): Sequential(
              (0): Linear(in_features=728, out_features=64, bias=True)
              (1): LayerNorm((64,), eps=1e-05, elementwise_affine=True)
              (2): SiLU()
              (3): Linear(in_features=64, out_features=64, bias=True)
              (4): LayerNorm((64,), eps=1e-05, elementwise_affine=True)
              (5): SiLU()
              (6): Linear(in_features=64, out_features=3072, bias=True)
            )
          )
        )
        (alpha_norm): LayerNorm((32,), eps=1e-05, elementwise_affine=True)
        (alpha_act): SmoothLeakyReLU(negative_slope=0.2)
        (alpha_dropout): Dropout(p=0.1, inplace=False)
        (s2_act): SeparableS2Activation(
          (scalar_act): SiLU()
          (s2_act): S2Activation(
            (act): SiLU()
          )
        )
        (so2_conv_2): SO2_Convolution(
          (mappingReduced): CoefficientMappingModule(lmax_list=[4], mmax_list=[2])
          (fc_m0): Linear(in_features=640, out_features=640, bias=True)
          (so2_m_conv): ModuleList(
            (0): SO2_m_Convolution(
              (fc): Linear(in_features=512, out_features=1024, bias=False)
            )
            (1): SO2_m_Convolution(
              (fc): Linear(in_features=384, out_features=768, bias=False)
            )
          )
        )
        (proj): SO3_LinearV2(in_features=128, out_features=128, lmax=4)
      )
      (drop_path): GraphDropPath(drop_prob=0.05)
      (norm_2): EquivariantRMSNormArraySphericalHarmonicsV2(lmax=4, num_channels=128, eps=1e-05, centering=True, std_balance_degrees=True)
      (ffn): FeedForwardNetwork(
        (SO3_grid): (4, 4)
        (so3_linear_1): SO3_LinearV2(in_features=128, out_features=32, lmax=4)
        (gating_linear): Linear(in_features=128, out_features=32, bias=True)
        (s2_act): SeparableS2Activation(
          (scalar_act): SiLU()
          (s2_act): S2Activation(
            (act): SiLU()
          )
        )
        (so3_linear_2): SO3_LinearV2(in_features=32, out_features=128, lmax=4)
      )
    )
  )
  (norm): EquivariantRMSNormArraySphericalHarmonicsV2(lmax=4, num_channels=128, eps=1e-05, centering=True, std_balance_degrees=True)
  (energy_block): FeedForwardNetwork(
    (SO3_grid): (4, 4)
    (so3_linear_1): SO3_LinearV2(in_features=128, out_features=32, lmax=4)
    (gating_linear): Linear(in_features=128, out_features=32, bias=True)
    (s2_act): SeparableS2Activation(
      (scalar_act): SiLU()
      (s2_act): S2Activation(
        (act): SiLU()
      )
    )
    (so3_linear_2): SO3_LinearV2(in_features=32, out_features=1, lmax=4)
  )
)
Number of params: 4712289
Epoch: [0][0/1] 	 loss: 4.59785, MAE: 51.54924, time/step=2576ms, lr=1.00e-06
Epoch: [1] Target: [7] train MAE: 51.54924, val MAE: 50.80685, test MAE: 46.66008, Time: 3.85s
…
